test data/compressed_not_bible/model_quant.tflite (tflite, 71032 bytes, 7 tensors)

model/my_model/dense/BiasAdd/ReadVariableOp f4 [76]
00000000: 3647 a03d ee24 db3c 29a1 da3d 62a1 5b3a
00000010: 3110 aa3d 2606 6b3c b7f4 7c3d cf8a be3d
00000020: 4f5c a53b 6f4a 7c3d 1968 863d 9138 293c
00000030: e1ac f43d c42e ad3d 93e1 1b3e 2a35 1abe
00000040: 0f33 cc3d 549b feba 1fe7 d4bc 24e0 aabd
00000050: 6d38 863d cac0 08bd 7dc2 60bc c6ea b7bd
00000060: d10d 32bd f3d7 26bc e019 953e 489e 4cbe
00000070: 262c 87bd b4d3 513e 86ed aa3d f7d1 003d
00000080: 929c 343c 3ce1 093d 0386 8d3d f962 1cbe
00000090: 8ce8 a83d 1546 543c 266a 08bd be74 783d
000000a0: 2c84 d23c 0014 89bd 46d4 9fbc 9f71 2dbd
000000b0: 9625 28bd 7fb7 53bd 2151 c63c 773b b8bb
000000c0: 2c67 41bd bbde e1bc 4e5f 6ebd 7785 14bd
000000d0: e42a 8fbd 80b4 65bd ae92 1cbd d023 abbd
000000e0: b1b1 22bd c94d dabd 958f c1bd 5b52 00be
000000f0: 6a68 06be 76ca 57bd 76de c2bd 25b4 03be
00000100: 823f 28be c41a 1ebe b33b 16be 0cda 23be
00000110: cf17 00be 00fb 14be 6191 15be 634b 1abe
00000120: 59c9 1cbe caff 26be 27e1 15be 31f2 00be
0.078260824 0.026751008 0.1067527 0.0008378235 0.083038695 0.014344728 0.061756816 0.093038194
0.0050464044 0.061594423 0.06562824 0.010328428 0.119470365 0.084561855 0.15222768 -0.15059343
0.09970676 -0.0019424953 -0.025989113 -0.08343533 0.06553731 -0.033386983 -0.013718245 -0.08980326
-0.043470208 -0.010183322 0.29121304 -0.19982255 -0.066002175 0.20490915 0.08346085 0.031450238
0.011023657 0.033662066 0.06910326 -0.1527213 0.0824748 0.012956162 -0.033304356 0.06065821
0.02569779 -0.06693268 -0.0195104 -0.042344686 -0.04105147 -0.051688667 0.024208607 -0.005622323
-0.047217533 -0.027572026 -0.05819636 -0.036260094 -0.069906026 -0.05608034 -0.038225822 -0.0835644
-0.03972024 -0.106593676 -0.09451214 -0.12531416 -0.13125768 -0.052683316 -0.09515087 -0.12861688
-0.16430476 -0.15439898 -0.14671211 -0.16001147 -0.12509082 -0.14548874 -0.14606239 -0.1506782
-0.15311183 -0.16308513 -0.1463667 -0.12592389

model/my_model/lstm/Read_2/ReadVariableOp f4 [128]
00000000: f617 7c3d de99 973d 6f6c 8a3d 3f6d 963d
00000010: a680 d23d ab02 d33d 0c96 0f3e a3b3 793e
00000020: 037c 9f3d db68 7e3e ddc5 c13d abe8 9f3d
00000030: 3d4c 763d 5a03 c03d 9580 e13d df89 913d
00000040: 04cd cd3d 3e78 903d d473 b13d 5894 9b3d
00000050: 5eec 483e a078 a73d ca9b 8c3d 2824 5c3d
00000060: 298e 6d3d 66c4 093e 5dea 103e 8850 b73d
00000070: 019a 583e 0370 763e b50e 8c3d 2a0f c23d
00000080: 294c 853f 6603 883f 241b 863f e34a 853f
00000090: 5dd3 823f 0ff7 803f 17c5 823f 87de 6b3f
000000a0: f2f9 803f a7d7 703f 0afd 833f 5569 883f
000000b0: 2b80 853f 2aff 883f 8e5e 8a3f 3ac9 863f
000000c0: 2516 883f 9798 863f 0fc1 833f d988 873f
000000d0: 68e5 7c3f f247 883f 1f5b 863f 40ba 853f
000000e0: da70 853f c344 813f b63e 823f 8830 833f
000000f0: 6642 753f 1490 803f a1c6 853f 9b3d 843f
00000100: 780d 353d 9b58 403d d866 58bd e038 423d
00000110: 9805 10bd c72f 433d 201a 47bd db1c 02bd
00000120: 9f9e f2bc dc8d 513d 19dd 36bd 5f60 62bd
00000130: af31 36bd 5cf3 953d 2f8c 8fbd 76d6 36bd
00000140: d993 7a3d f8d8 4c3d c551 4cbd 45fb 85bd
00000150: 796a ffbc 80dc 583d 1339 393d ee26 30bd
00000160: 0bd0 2b3d 71b9 2e3d 97f6 37bd 5eb0 273d
00000170: 1743 ed3c 2bae cabc 24b8 48bd a46a 2abd
00000180: d9b7 0abc 03c5 c4bc 6c6e 283c 0b64 763d
00000190: df48 023e 6059 813d 2e57 513d 5979 a43e
000001a0: 68a7 683d 293d bb3d 2124 7e3d 2dfa 873b
000001b0: 4e3f ff3b 5871 d0bc 9228 873c 0588 193d
000001c0: dab7 943c 4039 ba3c 24b1 d83d b205 f6b8
000001d0: 0f38 193e 18f1 f23c b424 5e3b ba2a 303c
000001e0: babc c7bb a461 fe3d 7c2c dc3d e2c1 843d
000001f0: 3375 1a3e 3cd2 8c3e 112c fb3c e411 8e3d
0.06154629 0.07402395 0.06758963 0.07345056 0.10278444 0.10303243 0.14022082 0.24384932
0.07787325 0.24844687 0.094615676 0.0780805 0.0601313 0.09375639 0.11010853 0.07106375
0.10048869 0.070541844 0.086646706 0.07596654 0.19621417 0.08177304 0.06865652 0.05374542
0.057996903 0.13453826 0.14151902 0.08950907 0.21152498 0.24066167 0.06838743 0.094755486
1.0413867 1.0626037 1.0477033 1.0413479 1.0220753 1.0075396 1.0216397 0.92136425
1.0076277 0.9407906 1.0311596 1.0657145 1.0429739 1.070287 1.0810106 1.053016
1.0631758 1.0515317 1.0293292 1.0588638 0.98787546 1.0646956 1.0496558 1.0447464
1.0425065 1.009911 1.0175388 1.0249186 0.9580444 1.0043969 1.0451242 1.03313
0.044202298 0.0469595 -0.052832454 0.04741752 -0.035161585 0.047652986 -0.0486089 -0.0317658
-0.029616652 0.05116068 -0.04464445 -0.055267688 -0.044480976 0.07321808 -0.0700916 -0.04463812
0.061176155 0.050011605 -0.04988267 -0.065420665 -0.0311787 0.05294466 0.045220446 -0.043005876
0.041946452 0.04265732 -0.0449129 0.04093968 0.028962655 -0.024741253 -0.049003735 -0.041605607
-0.008466684 -0.024019724 0.010280233 0.060154002 0.1272311 0.06315875 0.05110853 0.3212383
0.056800276 0.09142525 0.062046174 0.0041496963 0.007789529 -0.025444672 0.016498838 0.037483234
0.018154074 0.022732377 0.10580662 -0.00011731255 0.14962791 0.029655978 0.0033896388 0.010752374
-0.006095496 0.12420967 0.10750672 0.06482293 0.1508377 0.27504146 0.030660661 0.06937006

model/my_model/embedding/embedding_lookup i1 [76, 256] scale=0.005569439 zero_point=0
00000000: 0739 01f5 3911 1dde 16f2 e611 ebc8 dc12
00000010: 03eb ece2 e724 e809 3804 041c 26c4 fdf6
00000020: 113b 1615 0b2b df06 12d2 12fc ec0f fef2
00000030: 0c3c 1b1a e912 2b13 14ea 27ee 010f caeb
00000040: 0006 dc11 0308 ef26 dafd 0add 150f 23f4
00000050: 02ec e62b f82e 23c8 c53d 1f2f 1ae3 f41c
00000060: 1123 28f2 0b20 02e4 1926 db0a ce3e 1005
00000070: 030c 00e2 3c0d 0afa c7f3 c82e efe8 c9c7
00000080: fdf3 060f ea40 f529 091c e6d8 182c 13f4
00000090: cd04 f5d9 1bf0 e3e8 16ea 0918 180a e2dd
000000a0: efed e735 e0ff 2701 ff09 edd7 dd00 3fdb
000000b0: 18f6 10d8 c906 0415 e7f8 0709 f619 2fbc
000000c0: 0df8 3635 0a28 000e d6eb c0d2 0fe9 1524
000000d0: d1f6 2b04 eaca 1af3 0ed8 32fe fc25 de31
000000e0: 0935 16e6 21fc 1a22 12fe 0c1a f61c 1d1f
000000f0: f8f7 0ff1 ff35 144d 1520 ddd1 e810 0ff8
0.038986072 0.317458 0.005569439 -0.06126383 0.317458 0.09468046 0.16151373 -0.18936092
0.12252766 -0.077972144 -0.14480542 0.09468046 -0.116958216 -0.31188858 -0.2004998 0.1002499
0.016708316 -0.116958216 -0.11138878 -0.16708317 -0.13923597 0.2004998 -0.13366653 0.05012495
0.31188858 0.022277756 0.022277756 0.15594429 0.21163867 -0.33416635 -0.016708316 -0.05569439
0.09468046 0.3285969 0.12252766 0.116958216 0.06126383 0.23948587 -0.18379149 0.033416633
0.1002499 -0.2561942 0.1002499 -0.022277756 -0.11138878 0.08354159 -0.011138878 -0.077972144
0.066833265 0.33416635 0.15037484 0.14480542 -0.1280971 0.1002499 0.23948587 0.10581934
0.11138878 -0.12252766 0.21720812 -0.1002499 0.005569439 0.08354159 -0.3007497 -0.116958216
0.0 0.033416633 -0.2004998 0.09468046 0.016708316 0.04455551 -0.09468046 0.21163867
-0.21163867 -0.016708316 0.05569439 -0.19493036 0.116958216 0.08354159 0.19493036 -0.066833265
0.011138878 -0.11138878 -0.14480542 0.23948587 -0.04455551 0.2561942 0.19493036 -0.31188858
-0.3285969 0.33973578 0.1726526 0.26176363 0.14480542 -0.16151373 -0.066833265 0.15594429
0.09468046 0.19493036 0.22277756 -0.077972144 0.06126383 0.17822205 0.011138878 -0.15594429
0.13923597 0.21163867 -0.20606925 0.05569439 -0.27847195 0.3453052 0.08911102 0.027847195
0.016708316 0.066833265 0.0 -0.16708317 0.33416635 0.07240271 0.05569439 -0.033416633
-0.317458 -0.07240271 -0.31188858 0.2561942 -0.09468046 -0.13366653 -0.30631915 -0.317458
-0.016708316 -0.07240271 0.033416633 0.08354159 -0.12252766 0.3564441 -0.06126383 0.22834699
0.05012495 0.15594429 -0.14480542 -0.22277756 0.13366653 0.24505532 0.10581934 -0.066833265
-0.28404137 0.022277756 -0.06126383 -0.21720812 0.15037484 -0.08911102 -0.16151373 -0.13366653
0.12252766 -0.12252766 0.05012495 0.13366653 0.13366653 0.05569439 -0.16708317 -0.19493036
-0.09468046 -0.10581934 -0.13923597 0.29518026 -0.17822205 -0.005569439 0.21720812 0.005569439
-0.005569439 0.05012495 -0.10581934 -0.22834699 -0.19493036 0.0 0.35087466 -0.20606925
0.13366653 -0.05569439 0.08911102 -0.22277756 -0.30631915 0.033416633 0.022277756 0.116958216
-0.13923597 -0.04455551 0.038986072 0.05012495 -0.05569439 0.13923597 0.26176363 -0.37872183
0.07240271 -0.04455551 0.3007497 0.29518026 0.05569439 0.22277756 0.0 0.077972144
-0.23391643 -0.116958216 -0.3564441 -0.2561942 0.08354159 -0.1280971 0.116958216 0.2004998
-0.26176363 -0.05569439 0.23948587 0.022277756 -0.12252766 -0.3007497 0.14480542 -0.07240271
0.077972144 -0.22277756 0.27847195 -0.011138878 -0.022277756 0.20606925 -0.18936092 0.27290252
0.05012495 0.29518026 0.12252766 -0.14480542 0.18379149 -0.022277756 0.14480542 0.18936092
0.1002499 -0.011138878 0.066833265 0.14480542 -0.05569439 0.15594429 0.16151373 0.1726526
-0.04455551 -0.05012495 0.08354159 -0.08354159 -0.005569439 0.29518026 0.11138878 0.4288468
0.116958216 0.17822205 -0.19493036 -0.26176363 -0.13366653 0.08911102 0.08354159 -0.04455551

model/my_model/dense/Tensordot/MatMul1 i1 [76, 32] scale=0.0065310067 zero_point=0
00000000: f8ff ce38 e8d4 c365 d317 d0c6 d50a abd4
00000010: 1e08 1ed6 bb1f 4ed6 0b08 c1d8 e78c e5e6
00000020: 4159 df0c dbbc cf9f d10b e9e6 d04d d4ed
00000030: 451f 0ada 461e c0d5 2a48 3531 c6da bef6
00000040: 2102 1237 eb33 18b7 cb4a c012 12f5 f408
00000050: 1733 c7da c911 f236 1edd 1942 26c4 04b5
00000060: 53ac f607 1c54 da45 2435 30d2 f248 edd3
00000070: 5429 b332 491a 304c e12b dc47 4a49 e729
00000080: 2349 dfee b3f4 f5ca 031e ca27 c033 0bbf
00000090: ef20 e6d9 461e 12fd 2109 ff32 3e3e 01c9
000000a0: 1443 012b cd01 adb0 d1db fb1a e61b ddad
000000b0: 222e c8e9 0123 2c1b ff61 1c15 1875 de1d
000000c0: 3236 f813 3834 51b2 3f3a e1b6 03be 301b
000000d0: 230c dc42 a2fb 32c6 4d39 a831 e6bc 2df4
000000e0: 160d 0a44 c656 e50e d20e d7f4 13da 2015
000000f0: e413 d6e7 d2d9 edce f6ea d643 23d9 d6bc
-0.052248053 -0.0065310067 -0.32655033 0.36573637 -0.15674415 -0.2873643 -0.3983914 0.65963167
-0.2938953 0.15021315 -0.3134883 -0.3787984 -0.28083327 0.06531007 -0.55513555 -0.2873643
0.1959302 0.052248053 0.1959302 -0.27430227 -0.45063946 0.20246121 0.50941855 -0.27430227
0.071841076 0.052248053 -0.41145343 -0.26124027 -0.16327517 -0.7575968 -0.17633718 -0.16980617
0.42451543 0.5812596 -0.21552321 0.078372076 -0.24164724 -0.44410846 -0.32001933 -0.63350767
-0.3069573 0.071841076 -0.15021315 -0.16980617 -0.3134883 0.5028875 -0.2873643 -0.12408913
0.45063946 0.20246121 0.06531007 -0.24817826 0.45717046 0.1959302 -0.41798443 -0.28083327
0.27430227 0.4702325 0.34614336 0.32001933 -0.3787984 -0.24817826 -0.43104643 -0.06531007
0.21552321 0.013062013 0.11755812 0.35920537 -0.13715114 0.33308133 0.15674415 -0.4767635
-0.34614336 0.4832945 -0.41798443 0.11755812 0.11755812 -0.071841076 -0.078372076 0.052248053
0.15021315 0.33308133 -0.37226737 -0.24817826 -0.35920537 0.111027114 -0.09143409 0.35267437
0.1959302 -0.22858523 0.16327517 0.43104643 0.24817826 -0.3918604 0.026124027 -0.4898255
0.54207355 -0.54860455 -0.06531007 0.045717046 0.18286818 0.54860455 -0.24817826 0.45063946
0.23511624 0.34614336 0.3134883 -0.3004263 -0.09143409 0.4702325 -0.12408913 -0.2938953
0.54860455 0.26777127 -0.5028875 0.32655033 0.4767635 0.16980617 0.3134883 0.49635652
-0.20246121 0.28083327 -0.23511624 0.4637015 0.4832945 0.4767635 -0.16327517 0.26777127
0.22858523 0.4767635 -0.21552321 -0.11755812 -0.5028875 -0.078372076 -0.071841076 -0.35267437
0.019593019 0.1959302 -0.35267437 0.25470927 -0.41798443 0.33308133 0.071841076 -0.42451543
-0.111027114 0.20899221 -0.16980617 -0.25470927 0.45717046 0.1959302 0.11755812 -0.019593019
0.21552321 0.05877906 -0.0065310067 0.32655033 0.40492243 0.40492243 0.0065310067 -0.35920537
0.13062014 0.43757746 0.0065310067 0.28083327 -0.33308133 0.0065310067 -0.54207355 -0.52248055
-0.3069573 -0.24164724 -0.032655034 0.16980617 -0.16980617 0.17633718 -0.22858523 -0.54207355
0.22205423 0.3004263 -0.36573637 -0.15021315 0.0065310067 0.22858523 0.2873643 0.17633718
-0.0065310067 0.63350767 0.18286818 0.13715114 0.15674415 0.7641278 -0.22205423 0.1893992
0.32655033 0.35267437 -0.052248053 0.12408913 0.36573637 0.33961233 0.52901155 -0.50941855
0.41145343 0.3787984 -0.20246121 -0.4832945 0.019593019 -0.43104643 0.3134883 0.17633718
0.22858523 0.078372076 -0.23511624 0.43104643 -0.6139146 -0.032655034 0.32655033 -0.3787984
0.5028875 0.37226737 -0.5747286 0.32001933 -0.16980617 -0.44410846 0.2938953 -0.078372076
0.14368215 0.084903084 0.06531007 0.44410846 -0.3787984 0.56166655 -0.17633718 0.09143409
-0.3004263 0.09143409 -0.26777127 -0.078372076 0.12408913 -0.24817826 0.20899221 0.13715114
-0.18286818 0.12408913 -0.27430227 -0.16327517 -0.3004263 -0.25470927 -0.12408913 -0.32655033
-0.06531007 -0.14368215 -0.27430227 0.43757746 0.22858523 -0.25470927 -0.27430227 -0.44410846

model/my_model/lstm/Read_2/ReadVariableOp1 f4 [128]
00000000: f617 7c3d de99 973d 6f6c 8a3d 3f6d 963d
00000010: a680 d23d ab02 d33d 0c96 0f3e a3b3 793e
00000020: 037c 9f3d db68 7e3e ddc5 c13d abe8 9f3d
00000030: 3d4c 763d 5a03 c03d 9580 e13d df89 913d
00000040: 04cd cd3d 3e78 903d d473 b13d 5894 9b3d
00000050: 5eec 483e a078 a73d ca9b 8c3d 2824 5c3d
00000060: 298e 6d3d 66c4 093e 5dea 103e 8850 b73d
00000070: 019a 583e 0370 763e b50e 8c3d 2a0f c23d
00000080: 294c 853f 6603 883f 241b 863f e34a 853f
00000090: 5dd3 823f 0ff7 803f 17c5 823f 87de 6b3f
000000a0: f2f9 803f a7d7 703f 0afd 833f 5569 883f
000000b0: 2b80 853f 2aff 883f 8e5e 8a3f 3ac9 863f
000000c0: 2516 883f 9798 863f 0fc1 833f d988 873f
000000d0: 68e5 7c3f f247 883f 1f5b 863f 40ba 853f
000000e0: da70 853f c344 813f b63e 823f 8830 833f
000000f0: 6642 753f 1490 803f a1c6 853f 9b3d 843f
00000100: 780d 353d 9b58 403d d866 58bd e038 423d
00000110: 9805 10bd c72f 433d 201a 47bd db1c 02bd
00000120: 9f9e f2bc dc8d 513d 19dd 36bd 5f60 62bd
00000130: af31 36bd 5cf3 953d 2f8c 8fbd 76d6 36bd
00000140: d993 7a3d f8d8 4c3d c551 4cbd 45fb 85bd
00000150: 796a ffbc 80dc 583d 1339 393d ee26 30bd
00000160: 0bd0 2b3d 71b9 2e3d 97f6 37bd 5eb0 273d
00000170: 1743 ed3c 2bae cabc 24b8 48bd a46a 2abd
00000180: d9b7 0abc 03c5 c4bc 6c6e 283c 0b64 763d
00000190: df48 023e 6059 813d 2e57 513d 5979 a43e
000001a0: 68a7 683d 293d bb3d 2124 7e3d 2dfa 873b
000001b0: 4e3f ff3b 5871 d0bc 9228 873c 0588 193d
000001c0: dab7 943c 4039 ba3c 24b1 d83d b205 f6b8
000001d0: 0f38 193e 18f1 f23c b424 5e3b ba2a 303c
000001e0: babc c7bb a461 fe3d 7c2c dc3d e2c1 843d
000001f0: 3375 1a3e 3cd2 8c3e 112c fb3c e411 8e3d
0.06154629 0.07402395 0.06758963 0.07345056 0.10278444 0.10303243 0.14022082 0.24384932
0.07787325 0.24844687 0.094615676 0.0780805 0.0601313 0.09375639 0.11010853 0.07106375
0.10048869 0.070541844 0.086646706 0.07596654 0.19621417 0.08177304 0.06865652 0.05374542
0.057996903 0.13453826 0.14151902 0.08950907 0.21152498 0.24066167 0.06838743 0.094755486
1.0413867 1.0626037 1.0477033 1.0413479 1.0220753 1.0075396 1.0216397 0.92136425
1.0076277 0.9407906 1.0311596 1.0657145 1.0429739 1.070287 1.0810106 1.053016
1.0631758 1.0515317 1.0293292 1.0588638 0.98787546 1.0646956 1.0496558 1.0447464
1.0425065 1.009911 1.0175388 1.0249186 0.9580444 1.0043969 1.0451242 1.03313
0.044202298 0.0469595 -0.052832454 0.04741752 -0.035161585 0.047652986 -0.0486089 -0.0317658
-0.029616652 0.05116068 -0.04464445 -0.055267688 -0.044480976 0.07321808 -0.0700916 -0.04463812
0.061176155 0.050011605 -0.04988267 -0.065420665 -0.0311787 0.05294466 0.045220446 -0.043005876
0.041946452 0.04265732 -0.0449129 0.04093968 0.028962655 -0.024741253 -0.049003735 -0.041605607
-0.008466684 -0.024019724 0.010280233 0.060154002 0.1272311 0.06315875 0.05110853 0.3212383
0.056800276 0.09142525 0.062046174 0.0041496963 0.007789529 -0.025444672 0.016498838 0.037483234
0.018154074 0.022732377 0.10580662 -0.00011731255 0.14962791 0.029655978 0.0033896388 0.010752374
-0.006095496 0.12420967 0.10750672 0.06482293 0.1508377 0.27504146 0.030660661 0.06937006

while/MatMul_1 i1 [128, 32] scale=0.0066486388 zero_point=0
00000000: fd17 f60a ef04 15f7 f51c eee5 e913 190e
00000010: fa03 fdef 1009 1ff2 0214 f708 fc09 fff8
00000020: fe15 0723 04e8 f6f9 0309 f8f5 fdfb e604
00000030: 0f03 feff ee0f 0e11 fd07 f102 0706 ee00
00000040: 1c21 fd06 0507 07ff 0824 eaf6 00fd fd09
00000050: faf4 effc ec1b f208 0409 f906 eafc 0c04
00000060: 0cf1 eb0b 06fb f20f e2fa 0bf7 f015 dbe5
00000070: 0500 0cdc fd0d 0aff fc00 15f7 0511 fa18
00000080: 2526 04f6 09ea 05fc e9f9 fae7 0428 d5d2
00000090: 0f0e ffe0 281d 0afa 02fc 1c22 0435 f701
000000a0: 1d0a f418 f1ff f40c 07f5 03ff 0008 f0fe
000000b0: 1a22 0eec d709 12f3 171d 0804 f52e ed00
000000c0: f80b fc14 e7f3 06ef e71b feff f01d e3fe
000000d0: 141a 05f2 f815 11fe 25f5 fe21 f92a f800
000000e0: 042c e20a e016 ecd4 e118 d8fa f624 dfdf
000000f0: 2d0f e1f0 d11c 0eda 201c f627 15f2 f4cc
-0.019945916 0.1529187 -0.06648639 0.06648639 -0.11302686 0.026594555 0.1396214 -0.059837747
-0.073135026 0.18616189 -0.119675495 -0.17951325 -0.1529187 0.12632413 0.16621597 0.093080945
-0.03989183 0.019945916 -0.019945916 -0.11302686 0.10637822 0.059837747 0.2061078 -0.093080945
0.0132972775 0.13297278 -0.059837747 0.05318911 -0.026594555 0.059837747 -0.0066486388 -0.05318911
-0.0132972775 0.1396214 0.046540473 0.23270236 0.026594555 -0.15956733 -0.06648639 -0.046540473
0.019945916 0.059837747 -0.05318911 -0.073135026 -0.019945916 -0.033243194 -0.1728646 0.026594555
0.09972958 0.019945916 -0.0132972775 -0.0066486388 -0.119675495 0.09972958 0.093080945 0.11302686
-0.019945916 0.046540473 -0.09972958 0.0132972775 0.046540473 0.03989183 -0.119675495 0.0
0.18616189 0.21940508 -0.019945916 0.03989183 0.033243194 0.046540473 0.046540473 -0.0066486388
0.05318911 0.23935099 -0.14627005 -0.06648639 0.0 -0.019945916 -0.019945916 0.059837747
-0.03989183 -0.07978366 -0.11302686 -0.026594555 -0.13297278 0.17951325 -0.093080945 0.05318911
0.026594555 0.059837747 -0.046540473 0.03989183 -0.14627005 -0.026594555 0.07978366 0.026594555
0.07978366 -0.09972958 -0.1396214 0.073135026 0.03989183 -0.033243194 -0.093080945 0.09972958
-0.19945917 -0.03989183 0.073135026 -0.059837747 -0.10637822 0.1396214 -0.24599963 -0.17951325
0.033243194 0.0 0.07978366 -0.23935099 -0.019945916 0.0864323 0.06648639 -0.0066486388
-0.026594555 0.0 0.1396214 -0.059837747 0.033243194 0.11302686 -0.03989183 0.15956733
0.24599963 0.25264826 0.026594555 -0.06648639 0.059837747 -0.14627005 0.033243194 -0.026594555
-0.1529187 -0.046540473 -0.03989183 -0.16621597 0.026594555 0.26594555 -0.28589147 -0.3058374
0.09972958 0.093080945 -0.0066486388 -0.21275644 0.26594555 0.19281052 0.06648639 -0.03989183
0.0132972775 -0.026594555 0.18616189 0.22605371 0.026594555 0.35237786 -0.059837747 0.0066486388
0.19281052 0.06648639 -0.07978366 0.15956733 -0.09972958 -0.0066486388 -0.07978366 0.07978366
0.046540473 -0.073135026 0.019945916 -0.0066486388 0.0 0.05318911 -0.10637822 -0.0132972775
0.1728646 0.22605371 0.093080945 -0.13297278 -0.27259418 0.059837747 0.119675495 -0.0864323
0.1529187 0.19281052 0.05318911 0.026594555 -0.073135026 0.3058374 -0.12632413 0.0
-0.05318911 0.073135026 -0.026594555 0.13297278 -0.16621597 -0.0864323 0.03989183 -0.11302686
-0.16621597 0.17951325 -0.0132972775 -0.0066486388 -0.10637822 0.19281052 -0.19281052 -0.0132972775
0.13297278 0.1728646 0.033243194 -0.093080945 -0.05318911 0.1396214 0.11302686 -0.0132972775
0.24599963 -0.073135026 -0.0132972775 0.21940508 -0.046540473 0.2792428 -0.05318911 0.0
0.026594555 0.2925401 -0.19945917 0.06648639 -0.21275644 0.14627005 -0.13297278 -0.2925401
-0.2061078 0.15956733 -0.26594555 -0.03989183 -0.06648639 0.23935099 -0.21940508 -0.21940508
0.29918873 0.09972958 -0.2061078 -0.10637822 -0.31248602 0.18616189 0.093080945 -0.25264826
0.21275644 0.18616189 -0.06648639 0.25929692 0.1396214 -0.093080945 -0.07978366 -0.3457292

while/MatMul i1 [128, 256] scale=0.0064042527 zero_point=0
00000000: 2b04 fa12 380a fef0 17f7 1f26 0409 051f
00000010: 1b14 f2ef dfea 1024 190c 1d07 29ce dde5
00000020: 2033 2119 0a25 f120 0f10 0e07 fa22 20fb
00000030: 084a f700 ddff 1ee9 efe2 0be8 ea1f f6c1
00000040: 12f1 fbfc d30c 1426 0cd9 e70e 1feb f728
00000050: e604 ef24 19ee 24d3 da2c 0411 16ec 1511
00000060: 1cef 0ae0 0f0f e0d4 3201 2417 1deb f5ec
00000070: 13da 12e5 f408 0323 fc0c ef17 ec1e e6dd
00000080: fc1d f0f1 ef46 f0eb f41a c215 250c 29dc
00000090: f91a e704 0a11 1417 03dc 040d 1ef7 eff1
000000a0: e7ed f6ea e82c f608 e11d fbe6 d219 19e9
000000b0: 0413 15e4 081f 0c21 dce2 0513 e127 f4e1
000000c0: e3dd 1c2a 0906 0b1a cf22 e5f9 21ed f212
000000d0: f6f5 f00c 0929 06ff 1ad5 f7eb f219 0e29
000000e0: 2733 ed09 1ef3 161b 0b0a 2424 f90f ed09
000000f0: edf5 26fd 0225 242f 2720 e211 03fd 23e9
0.27538288 0.02561701 -0.038425516 0.115276545 0.35863817 0.06404252 -0.012808505 -0.10246804
0.14729781 -0.057638273 0.19853184 0.2433616 0.02561701 0.057638273 0.03202126 0.19853184
0.17291482 0.12808505 -0.08965954 -0.108872294 -0.21134034 -0.14089356 0.10246804 0.23055309
0.16010632 0.07685103 0.18572333 0.04482977 0.26257437 -0.32021263 -0.22414884 -0.17291482
0.20493609 0.32661688 0.21134034 0.16010632 0.06404252 0.23695736 -0.09606379 0.20493609
0.09606379 0.10246804 0.08965954 0.04482977 -0.038425516 0.21774459 0.20493609 -0.03202126
0.05123402 0.4739147 -0.057638273 0.0 -0.22414884 -0.0064042527 0.19212759 -0.14729781
-0.108872294 -0.19212759 0.07044678 -0.15370207 -0.14089356 0.19853184 -0.06404252 -0.40346792
0.115276545 -0.09606379 -0.03202126 -0.02561701 -0.28819138 0.07685103 0.12808505 0.2433616
0.07685103 -0.24976586 -0.16010632 0.08965954 0.19853184 -0.13448931 -0.057638273 0.2561701
-0.16651057 0.02561701 -0.108872294 0.23055309 0.16010632 -0.115276545 0.23055309 -0.28819138
-0.2433616 0.28178713 0.02561701 0.108872294 0.14089356 -0.12808505 0.13448931 0.108872294
0.17931908 -0.108872294 0.06404252 -0.20493609 0.09606379 0.09606379 -0.20493609 -0.28178713
0.32021263 0.0064042527 0.23055309 0.14729781 0.18572333 -0.13448931 -0.07044678 -0.12808505
0.1216808 -0.2433616 0.115276545 -0.17291482 -0.07685103 0.05123402 0.019212758 0.22414884
-0.02561701 0.07685103 -0.108872294 0.14729781 -0.12808505 0.19212759 -0.16651057 -0.22414884
-0.02561701 0.18572333 -0.10246804 -0.09606379 -0.108872294 0.44829768 -0.10246804 -0.13448931
-0.07685103 0.16651057 -0.39706367 0.13448931 0.23695736 0.07685103 0.26257437 -0.23055309
-0.04482977 0.16651057 -0.16010632 0.02561701 0.06404252 0.108872294 0.12808505 0.14729781
0.019212758 -0.23055309 0.02561701 0.08325528 0.19212759 -0.057638273 -0.108872294 -0.09606379
-0.16010632 -0.1216808 -0.06404252 -0.14089356 -0.15370207 0.28178713 -0.06404252 0.05123402
-0.19853184 0.18572333 -0.03202126 -0.16651057 -0.29459563 0.16010632 0.16010632 -0.14729781
0.02561701 0.1216808 0.13448931 -0.17931908 0.05123402 0.19853184 0.07685103 0.21134034
-0.23055309 -0.19212759 0.03202126 0.1216808 -0.19853184 0.24976586 -0.07685103 -0.19853184
-0.18572333 -0.22414884 0.17931908 0.26897863 0.057638273 0.038425516 0.07044678 0.16651057
-0.31380838 0.21774459 -0.17291482 -0.04482977 0.21134034 -0.1216808 -0.08965954 0.115276545
-0.06404252 -0.07044678 -0.10246804 0.07685103 0.057638273 0.26257437 0.038425516 -0.0064042527
0.16651057 -0.27538288 -0.057638273 -0.13448931 -0.08965954 0.16010632 0.08965954 0.26257437
0.24976586 0.32661688 -0.1216808 0.057638273 0.19212759 -0.08325528 0.14089356 0.17291482
0.07044678 0.06404252 0.23055309 0.23055309 -0.04482977 0.09606379 -0.1216808 0.057638273
-0.1216808 -0.07044678 0.2433616 -0.019212758 0.012808505 0.23695736 0.23055309 0.30099988
0.24976586 0.20493609 -0.19212759 0.108872294 0.019212758 -0.019212758 0.22414884 -0.14729781
