test data/compressed_not_bible/model_quant.tflite (tflite, 71032 bytes, 7 tensors)

model/my_model/dense/BiasAdd/ReadVariableOp f4 [76]
0.06276995 0.08256335 0.07779285 0.05291428 0.106391735 0.09817611 0.095676236 0.08379214
0.015240889 0.016655395 0.12622373 -0.0123132225 0.02220856 0.024992172 -0.053749293 -0.23734507
0.066177085 0.075357325 -0.033120785 -0.016784228 -0.07016897 0.10899448 -0.103972435 -0.07843148
0.076350816 0.02166196 0.15712975 -0.2213511 -0.08871704 0.065828845 0.100285925 -0.0002124173
-0.015654929 -0.005387279 0.019458722 -0.120058656 0.03963059 0.0121807745 -0.044455964 0.124839984
-0.024893282 -0.056319416 0.025389817 -0.056385823 -0.015572557 -0.021151492 -0.09110901 -0.022138061
-0.05102183 -0.020882577 -0.05118054 -0.045586653 -0.08238502 -0.06201501 -0.0775935 -0.07833575
-0.068287596 -0.11214226 -0.14421755 -0.10795535 -0.0601247 -0.10033718 -0.11705484 -0.115652464
-0.11494366 -0.12865467 -0.1609464 -0.15757146 -0.14125772 -0.14195332 -0.13183142 -0.18951973
-0.15459548 -0.13239464 -0.16099288 -0.1309553
00000000: 888d 803d f916 a93d dc51 9f3d a5bc 583d
00000010: e9e3 d93d 8e10 c93d e7f1 c33d 379b ab3d
00000020: ecb4 793c e570 883c cb40 013e 66bd 49bc
00000030: baee b53c 62bc cc3c 3828 5cbd 960a 73be
00000040: da87 873d f154 9a3d a9a9 07bd 147f 89bc
00000050: c0b4 8fbd 7f38 df3d 80ef d4bd afa0 a0bd
00000060: d15d 9c3d 6c74 b13c 9fe6 203e dda9 62be
00000070: 48b1 b5bd 46d1 863d b562 cd3d 56bc 5eb9
00000080: c43e 80bc c687 b0bb e667 9f3c 50e1 f5bd
00000090: af53 223d df91 473c 7517 36bd 1bac ff3d
000000a0: ffec cbbc 30af 66bd 4efe cf3c d2f4 66bd
000000b0: 0a24 7fbc e545 adbc 5c97 babd e15a b5bc
000000c0: 44fc 50bd f011 abbc b0a2 51bd 12b9 3abd
000000d0: 7ab9 a8bd 7303 7ebd 57e9 9ebd 7e6e a0bd
000000e0: 5eda 8bbd d7aa e5bd c4ad 13be b217 ddbd
000000f0: 5145 76bd 947d cdbd 73ba efbd 33db ecbd
00000100: 9567 ebbd 0dbe 03be 22cf 24be 6a5a 21be
00000110: dda5 10be 365c 11be d1fe 06be 7611 42be
00000120: 474e 1ebe 7692 07be 51db 24be 2519 06be

model/my_model/lstm/Read_2/ReadVariableOp f4 [128]
0.07336659 0.19029179 0.056333963 0.24502009 0.05897495 0.14441814 0.07374371 0.20586087
0.13133937 0.07921347 0.07019785 0.13742706 0.073368326 0.06907862 0.08840953 0.11257008
0.25351855 0.07459276 0.0759629 0.061893858 0.12967771 0.15118732 0.09860248 0.06835838
0.07579187 0.1910277 0.16930595 0.073936254 0.06972542 0.08126882 0.23532481 0.14655377
1.0140579 0.9614827 1.0466273 0.9172412 1.0445843 0.9876387 1.0443848 0.9912393
1.0709074 1.0255626 1.0426362 1.0017748 1.0462818 1.0475504 1.0592062 1.0280105
0.9916764 1.0329338 1.032652 1.0470728 1.0595418 0.96947867 1.0335948 1.0542167
1.0476159 0.9837891 1.0234858 1.0518173 1.0509876 1.0399424 0.9946422 1.0282209
-0.029563207 -0.020625668 -0.041743323 0.022294736 0.04407427 -0.042989638 -0.044832297 -0.048631307
0.015640775 0.03889093 0.050063603 0.058026467 0.051129922 0.03962008 0.04984355 -0.04126527
0.00746839 0.0382578 -0.048458662 0.0461524 -0.051344547 0.021549035 0.044640902 0.04906291
-0.051128086 -0.050172832 -0.037666082 -0.050850768 0.054756943 -0.047972765 -0.024107652 -0.031002128
0.086484864 0.24519974 0.0048045814 0.2411763 0.041120484 0.13491717 0.06441026 0.08094278
0.055984683 0.05844682 0.06321103 0.066510975 0.05806261 0.03985003 0.02563337 0.054084387
0.25644618 0.05511179 0.040013004 0.021981694 0.07032868 0.16920139 0.08709249 0.038643487
0.092224404 0.17700632 0.22849667 0.011121231 -0.0015496865 0.04437842 0.26247954 0.1812965
00000000: 3941 963d dadb 423e 71be 663d 8ce6 7a3e
00000010: b88f 713d 59e2 133e f106 973d 31cd 523e
00000020: d47d 063e ac3a a23d e4c3 8f3d aeb9 0c3e
00000030: 2242 963d 1779 8d3d 0e10 b53d 248b e63d
00000040: 2fcd 813e 17c4 983d 7092 9b3d 6a84 7d3d
00000050: 3cca 043e d9d0 1a3e 19f0 c93d 7aff 8b3d
00000060: c538 9b3d c49c 433e 8a5e 2d3e e46b 973d
00000070: 33cc 8e3d 4470 a63d fdf8 703e 3112 163e
00000080: a6cc 813f bb23 763f e2f7 853f 52d0 6a3f
00000090: f0b4 853f e4d5 7c3f 67ae 853f dcc1 7d3f
000000a0: 7e13 893f a345 833f 1a75 853f 283a 803f
000000b0: 90ec 853f 2216 863f 1294 873f d995 833f
000000c0: 81de 7d3f 2d37 843f f12d 843f 7b06 863f
000000d0: 119f 873f c12f 783f d64c 843f 93f0 863f
000000e0: 4718 863f 9ad9 7b3f 9501 833f f3a1 863f
000000f0: c386 863f d51c 853f dfa0 7e3f be9c 833f
00000100: 8a2e f2bc 29f7 a8bc 0cfb 2abd 73a3 b63c
00000110: 3987 343d e715 30bd 12a2 37bd 9f31 47bd
00000120: 1521 803c 194c 1f3d 7e0f 4d3d 29ad 6d3d
00000130: 9c6d 513d aa48 223d c028 4c3d c605 29bd
00000140: 65b9 f43b 36b4 1c3d 977c 46bd 4d0a 3d3d
00000150: a94e 52bd 9a87 b03c 61d9 363d 31f6 483d
00000160: af6b 51bd 0782 4dbd c047 1abd e548 50bd
00000170: d148 603d 177f 44bd 697d c5bc 2df8 fdbc
00000180: fa1e b13d a415 7b3e c06f 9d3b ecf6 763e
00000190: f46d 283d ba27 0a3e 87e9 833d 54c5 a53d
000001a0: 3250 653d ef65 6f3d c974 813d e836 883d
000001b0: 0fd3 6d3d c939 233d 13fd d13c 9787 5d3d
000001c0: ea4c 833e e6bc 613d ade4 233d f412 b43c
000001d0: 7c08 903d 2143 2d3e 8c5d b23d a248 1e3d
000001e0: 26e0 bc3d 2541 353e 08fb 693e d335 363c
000001f0: da1e cbba 25c6 353d b863 863e caa5 393e

model/my_model/embedding/embedding_lookup i1 [76, 256] scale=0.0054721306 zero_point=0
0.08755409 0.049249176 -0.18605244 0.016416391 0.065665565 0.010944261 -0.20246883 0.21341309
-0.043777045 0.038304914 0.3064393 -0.038304914 -0.24077375 -0.3392721 -0.109442614 0.1969967
0.10397048 0.08208196 -0.27360654 0.038304914 0.25719014 -0.16963606 -0.09302622 -0.109442614
-0.35568848 0.16416392 0.16416392 -0.16416392 0.27360654 -0.027360654 0.1969967 0.13133113
-0.22982949 -0.1805803 0.23530161 -0.29549506 0.021888522 0.16963606 0.08208196 -0.16416392
0.29549506 0.09849835 -0.021888522 0.38852128 0.26266226 0.0054721306 0.3009672 0.021888522
-0.20246883 0.3392721 -0.125859 0.1969967 0.032832783 0.3064393 -0.19152457 -0.2900229
0.060193438 0.09302622 -0.13680327 0.19152457 0.17510818 -0.20794097 0.07660983 0.3392721
-0.16416392 0.09849835 0.24624588 -0.24077375 0.038304914 -0.043777045 -0.24624588 0.33379996
0.25719014 0.33379996 -0.010944261 -0.29549506 -0.08755409 0.2845508 -0.08208196 0.125859
0.3173836 0.19152457 0.08755409 -0.07660983 -0.37210488 0.18605244 -0.13133113 -0.054721307
-0.010944261 0.13133113 -0.251718 -0.0054721306 0.13680327 0.3173836 -0.09849835 0.043777045
0.23530161 -0.38852128 0.054721307 -0.20794097 -0.0054721306 -0.08755409 -0.08755409 -0.1422754
-0.08755409 -0.26266226 -0.16963606 -0.10397048 0.1586918 -0.33379996 0.17510818 0.1805803
-0.021888522 -0.16416392 0.109442614 -0.010944261 -0.26266226 0.1586918 0.25719014 -0.125859
0.038304914 0.21888523 0.29549506 -0.22435735 -0.10397048 -0.065665565 0.114914745 -0.125859
0.054721307 -0.17510818 -0.09302622 0.07660983 -0.2900229 -0.049249176 0.060193438 -0.010944261
0.15321966 0.25719014 0.032832783 -0.120386876 0.049249176 -0.21341309 0.3009672 -0.34474424
0.21888523 -0.054721307 -0.24624588 0.377577 -0.24077375 0.021888522 -0.109442614 0.032832783
0.13133113 -0.065665565 0.027360654 0.060193438 -0.3228557 -0.27360654 -0.1422754 0.33379996
-0.08755409 -0.049249176 0.0054721306 0.16416392 0.17510818 -0.043777045 0.109442614 -0.21888523
-0.049249176 0.29549506 -0.08208196 -0.3228557 0.0054721306 0.125859 0.27360654 0.0
0.054721307 0.060193438 0.0054721306 -0.065665565 0.33379996 0.0 -0.1805803 -0.016416391
-0.07660983 0.049249176 -0.25719014 -0.16963606 0.33379996 -0.054721307 0.21888523 0.13680327
0.16963606 0.2845508 -0.016416391 0.09849835 -0.038304914 0.15321966 -0.2681344 0.027360654
-0.18605244 0.3228557 -0.20794097 -0.032832783 -0.22435735 0.22435735 -0.065665565 -0.049249176
-0.13680327 -0.060193438 -0.120386876 -0.027360654 -0.1969967 0.1422754 0.17510818 -0.2845508
-0.10397048 0.2900229 -0.109442614 0.08208196 -0.07660983 0.038304914 -0.065665565 -0.1422754
-0.24077375 -0.054721307 0.20246883 0.09849835 -0.22982949 -0.377577 0.1969967 0.08755409
0.16416392 0.3173836 0.054721307 -0.43777046 0.032832783 -0.26266226 0.13133113 0.0711377
-0.049249176 -0.1586918 -0.16963606 -0.251718 -0.114914745 0.0711377 0.049249176 -0.065665565
0.038304914 0.14774753 0.027360654 -0.21341309 0.2900229 0.065665565 -0.3009672 0.027360654
00000000: 1009 de03 0c02 db27 f807 38f9 d4c2 ec24
00000010: 130f ce07 2fe1 efec bf1e 1ee2 32fb 2418
00000020: d6df 2bca 041f 0fe2 3612 fc47 3001 3704
00000030: db3e e924 0638 ddcb 0b11 e723 20da 0e3e
00000040: e212 2dd4 07f8 d33d 2f3d feca f034 f117
00000050: 3a23 10f2 bc22 e8f6 fe18 d2ff 193a ee08
00000060: 2bb9 0ada fff0 f0e6 f0d0 e1ed 1dc3 2021
00000070: fce2 14fe d01d 2fe9 0728 36d7 edf4 15e9
00000080: 0ae0 ef0e cbf7 0bfe 1c2f 06ea 09d9 37c1
00000090: 28f6 d345 d404 ec06 18f4 050b c5ce e63d
000000a0: f0f7 011e 20f8 14d8 f736 f1c5 0117 3200
000000b0: 0a0b 01f4 3d00 dffd f209 d1e1 3df6 2819
000000c0: 1f34 fd12 f91c cf05 de3b dafa d729 f4f7
000000d0: e7f5 eafb dc1a 20cc ed35 ec0f f207 f4e6
000000e0: d4f6 2512 d6bb 2410 1e3a 0ab0 06d0 180d
000000f0: f7e3 e1d2 eb0d 09f4 071b 05d9 350c c905

model/my_model/dense/Tensordot/MatMul1 i1 [76, 32] scale=0.006364966 zero_point=0
-0.49010238 -0.70014626 -0.39462787 0.69378126 0.4646425 0.17185408 -0.4646425 -0.26732856
-0.45191258 0.23550373 0.15912415 0.3373432 0.45827752 0.12729931 -0.1654891 -0.044554763
0.38189796 0.42008775 -0.19094898 0.2800585 -0.54738706 0.69378126 0.2227738 0.29278842
-0.31188333 0.369168 -0.17185408 -0.12729931 0.05728469 -0.47100747 0.40099284 0.07637959
0.2227738 0.43281767 -0.3373432 0.5410221 0.17185408 0.27369353 0.31188333 -0.10820442
0.044554763 0.43918264 0.13366428 -0.070014626 0.47100747 0.32461324 0.36280304 -0.37553298
-0.15912415 0.2609636 -0.369168 0.26732856 0.3182483 -0.38189796 0.43281767 0.14002925
-0.2609636 -0.006364966 -0.14002925 -0.4455476 0.23550373 -0.012729932 0.006364966 -0.30551836
-0.070014626 -0.42008775 -0.21640883 -0.1654891 -0.40099284 -0.59194183 -0.3373432 -0.42008775
-0.031824827 0.25459862 0.19094898 0.54738706 -0.3182483 0.23550373 0.43281767 -0.14639421
0.29278842 -0.2609636 -0.184584 -0.14002925 0.27369353 0.22913876 0.34370816 -0.063649654
0.23550373 -0.2227738 -0.49010238 -0.184584 0.063649654 0.2609636 -0.21640883 -0.2991534
0.025459863 0.4455476 0.13366428 -0.6110367 -0.553752 -0.5983068 0.08274455 0.35007313
0.59194183 0.30551836 0.21004388 -0.2036789 0.3373432 0.37553298 0.22913876 -0.15275918
0.32461324 0.19094898 -0.27369353 0.3309782 -0.5028323 0.5219272 -0.39462787 0.37553298
-0.07637959 0.39462787 -0.4073578 -0.2991534 -0.14002925 0.38826293 0.27369353 -0.3309782
0.031824827 0.25459862 -0.050919726 -0.3373432 0.13366428 -0.05728469 0.28642347 -0.28642347
-0.05728469 0.43281767 0.15912415 -0.27369353 0.21640883 0.38189796 0.369168 -0.17821905
0.12093435 -0.14002925 -0.063649654 0.089109525 -0.24823366 -0.47737244 0.27369353 0.34370816
-0.17185408 -0.41372278 -0.17821905 -0.070014626 -0.070014626 -0.2227738 -0.40099284 -0.2227738
0.1654891 0.6746864 -0.15912415 -0.24823366 0.15912415 0.10820442 0.369168 -0.4646425
0.3373432 0.089109525 -0.044554763 0.025459863 0.3182483 0.14639421 0.49010238 -0.40099284
0.5346571 -0.15275918 -0.11456938 0.15275918 0.012729932 0.2991534 0.044554763 0.40099284
0.07637959 0.14002925 -0.25459862 -0.4073578 0.10183945 -0.26732856 -0.25459862 -0.31188333
-0.41372278 -0.38189796 0.15275918 -0.50919724 0.09547449 0.031824827 -0.2991534 0.36280304
0.29278842 -0.2036789 0.2036789 0.42008775 -0.30551836 0.41372278 0.063649654 -0.17821905
-0.36280304 -0.09547449 -0.38189796 -0.05728469 0.19731393 -0.23550373 0.05728469 -0.21640883
-0.070014626 -0.47737244 -0.29278842 -0.21640883 0.32461324 -0.5028323 0.3564381 0.41372278
-0.019094897 -0.5983068 -0.19731393 -0.14002925 0.070014626 -0.1654891 -0.50919724 -0.038189795
0.044554763 0.13366428 0.12093435 0.38189796 -0.24823366 0.13366428 0.05728469 -0.19094898
-0.17185408 0.32461324 -0.19094898 -0.25459862 -0.43918264 -0.044554763 -0.031824827 -0.29278842
0.0 -0.21640883 -0.40099284 0.019094897 -0.11456938 -0.10183945 -0.47737244 -0.3309782
00000000: b392 c26d 491b b7d6 b925 1935 4814 e6f9
00000010: 3c42 e22c aa6d 232e cf3a e5ec 09b6 3f0c
00000020: 2344 cb55 1b2b 31ef 0745 15f5 4a33 39c5
00000030: e729 c62a 32c4 4416 d7ff eaba 25fe 01d0
00000040: f5be dee6 c1a3 cbbe fb28 1e56 ce25 44e9
00000050: 2ed7 e3ea 2b24 36f6 25dd b3e3 0a29 ded1
00000060: 0446 15a0 a9a2 0d37 5d30 21e0 353b 24e8
00000070: 331e d534 b152 c23b f43e c0d1 ea3d 2bcc
00000080: 0528 f8cb 15f7 2dd3 f744 19d5 223c 3ae4
00000090: 13ea f60e d9b5 2b36 e5bf e4f5 f5dd c1dd
000000a0: 1a6a e7d9 1911 3ab7 350e f904 3217 4dc1
000000b0: 54e8 ee18 022f 073f 0c16 d8c0 10d6 d8cf
000000c0: bfc4 18b0 0f05 d139 2ee0 2042 d041 0ae4
000000d0: c7f1 c4f7 1fdb 09de f5b5 d2de 33b1 3841
000000e0: fda2 e1ea 0be6 b0fa 0715 133c d915 09e2
000000f0: e533 e2d8 bbf9 fbd2 00de c103 eef0 b5cc

model/my_model/lstm/Read_2/ReadVariableOp1 f4 [128]
0.07336659 0.19029179 0.056333963 0.24502009 0.05897495 0.14441814 0.07374371 0.20586087
0.13133937 0.07921347 0.07019785 0.13742706 0.073368326 0.06907862 0.08840953 0.11257008
0.25351855 0.07459276 0.0759629 0.061893858 0.12967771 0.15118732 0.09860248 0.06835838
0.07579187 0.1910277 0.16930595 0.073936254 0.06972542 0.08126882 0.23532481 0.14655377
1.0140579 0.9614827 1.0466273 0.9172412 1.0445843 0.9876387 1.0443848 0.9912393
1.0709074 1.0255626 1.0426362 1.0017748 1.0462818 1.0475504 1.0592062 1.0280105
0.9916764 1.0329338 1.032652 1.0470728 1.0595418 0.96947867 1.0335948 1.0542167
1.0476159 0.9837891 1.0234858 1.0518173 1.0509876 1.0399424 0.9946422 1.0282209
-0.029563207 -0.020625668 -0.041743323 0.022294736 0.04407427 -0.042989638 -0.044832297 -0.048631307
0.015640775 0.03889093 0.050063603 0.058026467 0.051129922 0.03962008 0.04984355 -0.04126527
0.00746839 0.0382578 -0.048458662 0.0461524 -0.051344547 0.021549035 0.044640902 0.04906291
-0.051128086 -0.050172832 -0.037666082 -0.050850768 0.054756943 -0.047972765 -0.024107652 -0.031002128
0.086484864 0.24519974 0.0048045814 0.2411763 0.041120484 0.13491717 0.06441026 0.08094278
0.055984683 0.05844682 0.06321103 0.066510975 0.05806261 0.03985003 0.02563337 0.054084387
0.25644618 0.05511179 0.040013004 0.021981694 0.07032868 0.16920139 0.08709249 0.038643487
0.092224404 0.17700632 0.22849667 0.011121231 -0.0015496865 0.04437842 0.26247954 0.1812965
00000000: 3941 963d dadb 423e 71be 663d 8ce6 7a3e
00000010: b88f 713d 59e2 133e f106 973d 31cd 523e
00000020: d47d 063e ac3a a23d e4c3 8f3d aeb9 0c3e
00000030: 2242 963d 1779 8d3d 0e10 b53d 248b e63d
00000040: 2fcd 813e 17c4 983d 7092 9b3d 6a84 7d3d
00000050: 3cca 043e d9d0 1a3e 19f0 c93d 7aff 8b3d
00000060: c538 9b3d c49c 433e 8a5e 2d3e e46b 973d
00000070: 33cc 8e3d 4470 a63d fdf8 703e 3112 163e
00000080: a6cc 813f bb23 763f e2f7 853f 52d0 6a3f
00000090: f0b4 853f e4d5 7c3f 67ae 853f dcc1 7d3f
000000a0: 7e13 893f a345 833f 1a75 853f 283a 803f
000000b0: 90ec 853f 2216 863f 1294 873f d995 833f
000000c0: 81de 7d3f 2d37 843f f12d 843f 7b06 863f
000000d0: 119f 873f c12f 783f d64c 843f 93f0 863f
000000e0: 4718 863f 9ad9 7b3f 9501 833f f3a1 863f
000000f0: c386 863f d51c 853f dfa0 7e3f be9c 833f
00000100: 8a2e f2bc 29f7 a8bc 0cfb 2abd 73a3 b63c
00000110: 3987 343d e715 30bd 12a2 37bd 9f31 47bd
00000120: 1521 803c 194c 1f3d 7e0f 4d3d 29ad 6d3d
00000130: 9c6d 513d aa48 223d c028 4c3d c605 29bd
00000140: 65b9 f43b 36b4 1c3d 977c 46bd 4d0a 3d3d
00000150: a94e 52bd 9a87 b03c 61d9 363d 31f6 483d
00000160: af6b 51bd 0782 4dbd c047 1abd e548 50bd
00000170: d148 603d 177f 44bd 697d c5bc 2df8 fdbc
00000180: fa1e b13d a415 7b3e c06f 9d3b ecf6 763e
00000190: f46d 283d ba27 0a3e 87e9 833d 54c5 a53d
000001a0: 3250 653d ef65 6f3d c974 813d e836 883d
000001b0: 0fd3 6d3d c939 233d 13fd d13c 9787 5d3d
000001c0: ea4c 833e e6bc 613d ade4 233d f412 b43c
000001d0: 7c08 903d 2143 2d3e 8c5d b23d a248 1e3d
000001e0: 26e0 bc3d 2541 353e 08fb 693e d335 363c
000001f0: da1e cbba 25c6 353d b863 863e caa5 393e

while/MatMul_1 i1 [128, 32] scale=0.005827976 zero_point=0
-0.13404344 0.05827976 -0.09907559 0.42544225 -0.011655952 -0.11655952 -0.05827976 0.093247615
0.040795833 0.005827976 0.11073154 0.18066725 0.005827976 0.0 0.011655952 0.34385058
-0.39047438 -0.09907559 0.011655952 -0.13987142 -0.34385058 0.052451782 0.081591666 0.0
-0.12238749 0.005827976 0.2913988 0.034967855 0.046623807 0.15735535 0.040795833 0.13404344
-0.07576369 0.3380226 -0.26808688 0.44292617 0.25643095 -0.20397916 0.0 -0.040795833
0.28557083 0.26808688 0.023311904 0.28557083 0.046623807 0.18649523 0.28557083 -0.07576369
-0.16318333 -0.07576369 0.093247615 0.09907559 -0.30305475 0.052451782 0.104903564 0.023311904
-0.040795833 0.046623807 -0.11655952 -0.005827976 -0.081591666 -0.093247615 -0.38464642 -0.44875413
-0.017483927 -0.040795833 0.23311904 0.093247615 0.023311904 0.0 -0.02913988 0.011655952
0.052451782 0.17483927 0.081591666 0.09907559 -0.011655952 0.11655952 0.046623807 -0.15735535
-0.052451782 0.11073154 -0.06410774 0.06410774 -0.06410774 0.06993571 -0.011655952 0.046623807
-0.15735535 -0.06993571 -0.040795833 0.005827976 -0.13404344 0.005827976 -0.040795833 0.046623807
-0.16318333 -0.22146308 -0.20397916 0.11073154 0.1456994 -0.13404344 -0.15735535 -0.22146308
0.26808688 0.26808688 0.17483927 0.44292617 0.3088827 0.20397916 0.30305475 -0.20397916
0.25060296 0.2156351 -0.41961426 0.11655952 -0.19232321 0.11073154 0.28557083 -0.13404344
-0.1690113 -0.28557083 -0.12821548 -0.26225892 0.19232321 -0.12821548 -0.17483927 -0.3088827
-0.011655952 0.06410774 -0.104903564 0.046623807 0.093247615 0.046623807 0.052451782 -0.13404344
0.05827976 0.005827976 0.104903564 0.15735535 0.23894702 0.1690113 0.034967855 -0.1456994
-0.011655952 0.07576369 -0.05827976 0.12821548 0.034967855 0.13987142 -0.052451782 0.19232321
-0.13404344 -0.11655952 -0.06993571 -0.052451782 0.17483927 -0.15735535 -0.040795833 0.13404344
-0.05827976 0.07576369 0.017483927 -0.25060296 0.0 -0.07576369 -0.06410774 -0.18066725
0.19815119 -0.011655952 0.06993571 0.23894702 0.23311904 0.09907559 0.17483927 -0.26225892
-0.12821548 0.081591666 -0.093247615 0.15152737 -0.24477498 -0.25643095 0.27974284 0.06993571
-0.25643095 0.093247615 -0.104903564 -0.12821548 0.18066725 -0.034967855 -0.1456994 -0.19232321
-0.005827976 -0.08741964 -0.11655952 -0.017483927 0.005827976 -0.06993571 -0.046623807 -0.023311904
0.2156351 0.046623807 0.13404344 0.08741964 0.22146308 0.0 0.08741964 0.046623807
0.08741964 -0.11073154 -0.1456994 -0.052451782 -0.052451782 0.023311904 -0.023311904 0.11655952
-0.023311904 0.023311904 0.02913988 0.011655952 -0.052451782 -0.011655952 -0.20397916 0.017483927
0.05827976 0.13987142 0.023311904 -0.1456994 -0.023311904 -0.040795833 -0.19815119 -0.081591666
0.40213034 0.081591666 0.24477498 0.18066725 0.3671625 0.22146308 0.13987142 -0.13404344
-0.12821548 0.046623807 -0.06993571 0.16318333 -0.24477498 -0.19815119 0.11655952 0.22729106
-0.18066725 -0.06993571 0.09907559 -0.15152737 0.005827976 -0.08741964 -0.1456994 -0.05827976
00000000: e90a ef49 feec f610 0701 131f 0100 023b
00000010: bdef 02e8 c509 0e00 eb01 3206 081b 0717
00000020: f33a d24c 2cdd 00f9 312e 0431 0820 31f3
00000030: e4f3 1011 cc09 1204 f908 ecff f2f0 beb3
00000040: fdf9 2810 0400 fb02 091e 0e11 fe14 08e5
00000050: f713 f50b f50c fe08 e5f4 f901 e901 f908
00000060: e4da dd13 19e9 e5da 2e2e 1e4c 3523 34dd
00000070: 2b25 b814 df13 31e9 e3cf ead3 21ea e2cb
00000080: fe0b ee08 1008 09e9 0a01 121b 291d 06e7
00000090: fe0d f616 0618 f721 e9ec f4f7 1ee5 f917
000000a0: f60d 03d5 00f3 f5e1 22fe 0c29 2811 1ed3
000000b0: ea0e f01a d6d4 300c d410 eeea 1ffa e7df
000000c0: fff1 ecfd 01f4 f8fc 2508 170f 2600 0f08
000000d0: 0fed e7f7 f704 fc14 fc04 0502 f7fe dd03
000000e0: 0a18 04e7 fcf9 def2 450e 2a1f 3f26 18e9
000000f0: ea08 f41c d6de 1427 e1f4 11e6 01f1 e7f6

while/MatMul i1 [128, 256] scale=0.0068274187 zero_point=0
-0.13654837 -0.068274185 0.16385806 0.04779193 0.0 0.16385806 -0.10241128 0.5120564
-0.42329997 0.020482257 -0.013654837 -0.034137093 0.13654837 -0.53253865 0.2867516 0.13654837
-0.061446767 -0.2526145 -0.2526145 0.31406125 0.0 -0.08192903 -0.3686806 -0.07510161
-0.7714983 -0.1092387 -0.0068274187 0.3277161 -0.061446767 0.23213224 -0.24578707 -0.21164998
0.1092387 -0.10241128 -0.1433758 0.19799514 -0.21164998 0.19799514 0.36185318 -0.26626933
0.13654837 0.22530481 -0.13654837 -0.13654837 -0.20482256 0.27309674 -0.33454353 0.24578707
-0.12972096 -0.2184774 0.08192903 -0.11606612 -0.23213224 -0.040964514 -0.05461935 -0.027309675
0.068274185 0.24578707 0.027309675 0.07510161 0.08875644 0.2184774 0.20482256 -0.6349499
0.293579 0.19799514 0.20482256 -0.04779193 -0.19116773 -0.17751288 0.2594419 -0.2867516
0.38916287 0.061446767 -0.27309674 0.040964514 0.4779193 0.17751288 0.12972096 -0.19799514
0.020482257 0.19799514 -0.1092387 -0.22530481 0.13654837 -0.34819835 -0.21164998 0.12972096
-0.21164998 -0.19116773 0.027309675 0.08192903 0.08192903 0.12972096 -0.020482257 -0.07510161
-0.42329997 -0.15020321 0.068274185 -0.39599028 0.11606612 -0.13654837 0.19799514 0.061446767
-0.23895966 -0.31406125 -0.12972096 -0.19799514 0.11606612 0.11606612 0.09558386 -0.10241128
-0.05461935 -0.068274185 -0.20482256 -0.19799514 -0.4096451 -0.11606612 0.0068274187 0.22530481
-0.034137093 -0.45743704 0.068274185 -0.49157414 0.24578707 0.013654837 -0.027309675 0.31406125
-0.4369548 -0.08192903 -0.3686806 0.122893535 -0.1433758 -0.1092387 0.33454353 -0.122893535
0.10241128 0.17751288 0.22530481 0.20482256 -0.122893535 -0.04779193 -0.22530481 0.41647255
-0.24578707 0.3277161 0.15020321 0.08192903 0.16385806 -0.22530481 -0.31406125 -0.040964514
-0.2594419 -0.10241128 -0.20482256 -0.24578707 -0.0068274187 0.33454353 0.2526145 0.1092387
-0.20482256 -0.122893535 0.07510161 -0.05461935 -0.13654837 -0.30040643 0.08192903 0.061446767
0.39599028 -0.45743704 0.19799514 0.10241128 -0.04779193 0.12972096 -0.08875644 0.42329997
0.33454353 0.013654837 0.0 0.12972096 -0.2526145 -0.3686806 0.08875644 0.23895966
-0.15703063 0.34819835 0.09558386 -0.23895966 -0.22530481 -0.24578707 -0.12972096 -0.08875644
-0.05461935 0.293579 0.10241128 0.38916287 -0.1843403 0.05461935 0.2526145 -0.5188838
-0.33454353 -0.587158 0.15020321 0.23895966 0.21164998 -0.17751288 -0.293579 0.17068547
0.034137093 -0.11606612 -0.12972096 -0.15020321 -0.27992415 0.2594419 -0.20482256 -0.19799514
0.05461935 0.1433758 0.1092387 -0.21164998 0.43012738 0.2594419 -0.11606612 0.30040643
0.04779193 0.020482257 -0.1433758 0.1092387 0.41647255 0.061446767 0.040964514 -0.2867516
-0.32088867 0.49157414 0.26626933 -0.034137093 0.08192903 0.22530481 0.1433758 -0.23895966
0.16385806 0.08875644 -0.23895966 0.46426448 0.020482257 0.13654837 0.061446767 -0.38233545
0.08875644 -0.31406125 0.09558386 0.10241128 0.24578707 0.34137094 0.5530209 0.3686806
00000000: ecf6 1807 0018 f14b c203 fefb 14b2 2a14
00000010: f7db db2e 00f4 caf5 8ff0 ff30 f722 dce1
00000020: 10f1 eb1d e11d 35d9 1421 ecec e228 cf24
00000030: ede0 0cef defa f8fc 0a24 040b 0d20 1ea3
00000040: 2b1d 1ef9 e4e6 26d6 3909 d806 461a 13e3
00000050: 031d f0df 14cd e113 e1e4 040c 0c13 fdf5
00000060: c2ea 0ac6 11ec 1d09 ddd2 ede3 1111 0ef1
00000070: f8f6 e2e3 c4ef 0121 fbbd 0ab8 2402 fc2e
00000080: c0f4 ca12 ebf0 31ee 0f1a 211e eef9 df3d
00000090: dc30 160c 18df d2fa daf1 e2dc ff31 2510
000000a0: e2ee 0bf8 ecd4 0c09 3abd 1d0f f913 f33e
000000b0: 3102 0013 dbca 0d23 e933 0edd dfdc edf3
000000c0: f82b 0f39 e508 25b4 cfaa 1623 1fe6 d519
000000d0: 05ef edea d726 e2e3 0815 10e1 3f26 ef2c
000000e0: 0703 eb10 3d09 06d6 d148 27fb 0c21 15dd
000000f0: 180d dd44 0314 09c8 0dd2 0e0f 2432 5136
